app/src/main/ml/lite_model.tflite (tflite, 231000 bytes, 8 tensors)

sequential_3/dense_6/BiasAdd/ReadVariableOp f4 [128]
-0.025940422 0.17916682 -0.031666435 -0.030168852 -0.01577849 -0.041883167 -0.07201629 -0.018100148
-0.010059387 -0.026422877 -0.07229211 0.057178646 0.061225034 -0.0067228475 -0.020380316 -0.058188926
-0.03802306 -0.052812833 -0.101780206 -0.010064377 -0.07142953 -0.010917078 -0.020359363 -0.07605805
-0.025103945 -0.006341218 -0.052162662 0.09579565 -0.032885525 -0.010652667 -0.018833691 0.02205629
-0.11220972 -0.05637246 0.08279134 -0.0077290586 -0.032468643 -0.016821528 0.02838249 -0.010450384
-0.0067304843 0.05602322 -0.020350453 0.12380015 0.10717792 0.18944456 -0.055392075 0.15141053
-0.03177809 0.103242874 0.1054483 0.010987832 -0.014416353 0.09021044 0.12670435 0.19689423
0.0453146 -0.03609989 -0.009405149 -0.013545034 0.15851772 -0.030873109 -0.051751785 -0.029901946
-0.06487564 -0.017110728 0.12117548 0.08302733 -0.018169777 -0.01968676 0.13044098 0.20530924
-0.018531151 0.15441252 -0.007483388 0.0146571705 -0.00616333 -0.023880186 -0.021079283 0.036942985
0.082987435 -0.013344476 -0.07212338 0.14027993 -0.012273365 -0.069358036 0.010108216 0.058215033
0.025984759 0.021839965 0.12673546 0.04826803 0.13430856 -0.1283396 -0.016724925 0.074431345
0.037529886 0.20753512 0.09023425 0.02341271 -0.012875013 0.059873007 -0.0071608326 -0.061254203
0.111556746 0.103185214 0.041093726 0.12809458 -0.09376165 -0.004505865 0.124164544 0.0065506846
-0.07523777 -0.017498465 -0.036894757 0.026855266 -0.00039313408 0.14670536 0.12102779 -0.026744286
-0.17286329 -0.11460535 0.16645674 0.112506084 -0.021744533 -0.0081007015 0.116482966 0.17614599
00000000: 0281 d4bc 8277 373e aab4 01bd ab24 f7bc
00000010: e441 81bc af8d 2bbd 477d 93bd c346 94bc
00000020: 21d0 24bc ca74 d8bc e30d 94bd 2834 6a3d
00000030: 1ac7 7a3d 554b dcbb 9ff4 a6bc 8357 6ebd
00000040: 11be 1bbd 4552 58bd 2472 d0bd 0fe5 24bc
00000050: a549 92bd 8bdd 32bc aec8 a6bc 53c4 9bbd
00000060: caa6 cdbc fec9 cfbb 84a8 55bd 8230 c43d
00000070: f9b2 06bd 8688 2ebc 1d49 9abc 65af b43c
00000080: 36ce e5bd cfe6 66bd 828e a93d 0b44 fdbb
00000090: d7fd 04bd 4dcd 89bc 6582 e83c 1638 2bbc
000000a0: 658b dcbb 9b78 653d feb5 a6bc ef8a fd3d
000000b0: 1980 db3d c1fd 413e cde2 62bd 5d0b 1b3e
000000c0: be29 02bd 0071 d33d 47f5 d73d 4f06 343c
000000d0: 9132 6cbc 40c0 b83d c9be 013e a49e 493e
000000e0: cd9b 393d 7add 13bd 0e18 1abc feeb 5dbc
000000f0: 7852 223e 9ae9 fcbc aef9 53bd edf4 f4bc
00000100: 85dd 84bd cc2b 8cbc da2a f83d 3c0a aa3d
00000110: c9d8 94bc 2146 a1bc 5292 053e 963c 523e
00000120: a4ce 97bc 511e 1e3e 3537 f5bb a124 703c
00000130: c2f5 c9bb 61a0 c3bc 76ae acbc 8751 173d
00000140: 51f5 a93d caa2 5abc 6cb5 93bd 8ba5 0f3e
00000150: 3916 49bc 960b 8ebd ee9c 253c e372 6e3d
00000160: fddd d43c bae9 b23c f1c6 013e b3b4 453d
00000170: 2f88 093e 756b 03be b602 89bc 766f 983d
00000180: f0b8 193d 1684 543e bccc b83d 03cc bf3c
00000190: b8f1 52bc 663d 753d 6ba5 eabb b0e5 7abd
000001a0: dd77 e43d c552 d33d e551 283d 3a2b 033e
000001b0: 1c06 c0bd efa5 93bb fb49 fe3d 20a7 d63b
000001c0: 4316 9abd f158 8fbc f51e 17bd 93ff db3c
000001d0: 901d ceb9 ee39 163e 6bdd f73d d516 dbbc
000001e0: 1303 31be 36b6 eabd a373 2a3e 9769 e63d
000001f0: 9721 b2bc ceb8 04bc 9f8e ee3d 9d5f 343e

sequential_3/dense_7/BiasAdd/ReadVariableOp f4 [10]
-0.11154671 -0.1657437 0.057794675 0.068308555 -0.09419491 -0.18299872 0.15134072 0.056471787
0.02945949 -0.0095697995
00000000: 9a72 e4bd b7b8 29be 1cba 6c3d 5be5 8b3d
00000010: 43e9 c0bd 0464 3bbe 10f9 1a3e f64e 673d
00000020: 0755 f13c a6ca 1cbc

sequential_3/conv2d_7/BiasAdd/ReadVariableOp f4 [32]
-0.018007757 0.33450058 -0.16037476 -0.028212579 -0.13467602 -0.00580127 -0.0063045956 -0.021932632
-0.010194725 -0.046512585 -0.044461653 -0.0071495394 0.017120047 -0.0114556765 -0.005930878 -0.010064739
0.008298465 -0.0059990003 0.122407824 0.00093073834 -0.008965532 -0.1396255 -0.00043013666 -0.19306737
-0.009474265 -0.012932834 -0.010193015 0.019778986 0.03440914 0.021523975 -0.031031068 -0.017948939
00000000: 0185 93bc a943 ab3e 4839 24be 111e e7bc
00000010: 83e8 09be 9418 bebb c896 cebb 10ac b3bc
00000020: c707 27bc fb83 3ebd 6c1d 36bd af46 eabb
00000030: 573f 8c3c 97b0 3bbc d057 c2bb 93e6 24bc
00000040: 49f6 073c 4393 c4bb f4b0 fa3d cbfc 733a
00000050: 2be4 12bc fdf9 0ebe f783 e1b9 74b3 45be
00000060: f339 1bbc 3de4 53bc 9b00 27bc 8a07 a23c
00000070: 99f0 0c3d 0c53 b03c de34 febc a709 93bc

sequential_3/conv2d_8/BiasAdd/ReadVariableOp f4 [64]
0.115902655 0.20680346 -0.03227522 -0.013919879 0.06707963 -0.123793 -0.14388213 -0.010259865
-0.051537503 -0.0022510306 0.19927825 -0.060056154 -0.030052677 -0.087745175 -0.13743968 -0.08720767
0.12894884 -0.19860637 -0.20769426 -0.25721854 -0.037548274 0.0050704814 0.31244972 -0.10617834
-0.13503462 0.0100647705 -0.04031823 0.28421253 0.1297363 0.20460026 0.20779489 0.25317916
-0.1738768 -0.019884743 -0.012178532 -0.045818225 0.110492736 0.14986077 0.061565258 0.013632295
0.052324675 0.098207116 0.10500236 -0.04538265 0.025350427 0.009837525 0.029453855 0.24956839
0.08964892 0.15831433 -0.22379284 0.2482022 -0.03514385 -0.09802537 -0.083433285 0.028949814
-0.03198892 -0.009906159 -0.021372993 0.25811225 0.00687134 -0.029830905 0.046493117 -0.006579237
00000000: 5f5e ed3d 49c4 533e 0533 04bd 3410 64bc
00000010: 0c61 893d 2f87 fdbd d655 13be fe18 28bc
00000020: fd18 53bd 0786 13bb 990f 4c3e 71fd 75bd
00000030: 0831 f6bc beb3 b3bd fdbc 0cbe ef99 b2bd
00000040: 2a0b 043e 785f 4bbe cead 54be 26b2 83be
00000050: 38cc 19bd 4826 a63b 69f9 9f3e 0874 d9bd
00000060: 8446 0abe b5e6 243c ba24 25bd 4e84 913e
00000070: 98d9 043e bb82 513e 2fc8 543e b3a0 813e
00000080: c30c 32be 54e5 a2bc 7788 47bc e4ab 3bbd
00000090: 044a e23d 1a75 193e da2b 7c3d fd59 5f3c
000000a0: 6652 563d d020 c93d 7a0b d73d 28e3 39bd
000000b0: b3ab cf3c 922d 213c 3649 f13c db8e 7f3e
000000c0: da99 b73d 271d 223e f329 65be b828 7e3e
000000d0: fff2 0fbd 86c1 c8bd 12df aabd 2928 ed3c
000000e0: d006 03bd 714d 22bc 6a16 afbc 4a27 843e
000000f0: fa28 e13b f15f f4bc 916f 3e3d a496 d7bb

sequential_3/conv2d_7/Conv2D f4 [32, 3, 3, 1]
0.07792776 0.3365819 0.012524166 -0.15991476 -0.018917307 -0.0024526461 -0.43807995 0.17105667
0.045724913 -0.8330561 -1.7796389 -1.4085085 -0.36042863 -0.87937194 -0.66466016 0.30533808
0.13999143 0.1474211 0.09403506 0.22599985 0.10513191 -0.026020145 0.062613636 0.05522255
0.053722106 0.027889038 -0.24735375 0.026942361 0.15054351 0.3213455 0.212603 0.15205652
0.043649133 -0.10981256 -0.3970243 -0.39421147 0.1393872 0.1684758 0.06547079 -0.10252015
-0.21993919 -0.1317113 0.14461742 0.07683224 0.039176933 -0.10647359 -0.18457426 -0.09607617
0.17355381 0.0911116 -0.29949918 -0.22727215 0.2954831 0.34832475 -0.19403064 -0.24063353
0.44601107 -0.05310551 -0.13419831 0.23038697 0.057274833 0.091753125 -0.13781 0.03157891
0.12434053 -0.25179353 -0.14367138 0.14473403 0.29979867 0.13513218 -0.28112096 -0.03187102
0.017083094 -0.46135184 -0.18025912 0.08166978 0.0204973 0.19721708 -0.13223143 0.47828627
0.060685337 -0.0068309405 0.35754853 -0.108403064 -0.26373175 0.0585934 -0.31840128 -0.112747625
0.46858034 -0.089632735 0.14330727 -0.064028844 -0.23785806 -0.14437535 0.30729467 -0.10461198
-0.14610657 0.15169576 0.06482016 0.009950508 0.40234903 0.12712799 0.25542507 -0.06791257
-0.6555909 -0.017179027 -0.3836727 -0.3254331 -0.2200672 0.3804132 -0.18387115 0.16350162
-0.08836542 -0.080911905 0.17508182 -0.28555608 0.09751345 0.07455491 -0.022245878 -0.3358042
0.25871927 0.16126844 -0.31296262 0.06037063 0.21103577 -0.051568948 -0.21600235 -0.46599522
-0.03437095 0.33873433 0.4191681 0.11656683 -0.106224395 0.05755267 -0.056196734 0.034949627
-0.07803546 -0.32770652 0.038341593 -0.14014684 0.12087434 -0.019212807 0.14229204 0.28886855
-0.27074796 0.20136613 -0.11596075 0.11526912 0.28050005 -0.0014306742 -0.1014507 -0.004222228
-0.37291098 -0.20563306 -0.013117525 0.13743472 -0.2246269 0.14376323 0.16458851 -0.026066683
-0.106372096 0.11703426 -0.12767987 0.35099718 0.081495866 -0.34578228 0.028914187 0.19372141
-1.2232282 -0.3499511 0.019514862 0.2007109 -0.21789402 0.046318486 0.43135333 -0.23716249
-0.2665158 0.19231942 0.013433071 -0.12251241 0.16374567 0.030541338 -0.15324014 0.17781916
0.23636775 -0.39195225 0.08495415 0.2552235 -0.33406934 0.13430464 0.09838739 -0.18503645
0.075361975 -0.118941896 0.18600294 -0.14542517 -0.07851341 0.19677272 -0.26514563 0.007538639
0.33616877 0.011820194 -0.06040962 -0.021635802 -0.26731792 0.05730034 -0.40111062 -0.003395455
-0.052690584 0.15747753 -0.0012052006 0.040037494 0.14832376 -0.308377 0.2480065 0.088765934
0.0550394 -0.10827615 0.054026518 0.17196602 -0.39113566 0.22454597 0.14579721 -0.38977325
0.22997965 -0.2651188 0.2739984 -0.03195391 -0.11438122 0.22569558 0.03489017 -0.044417344
0.16486536 -0.21669118 0.18811966 -0.25181356 0.048706707 0.09169308 -0.34198886 0.2348535
0.26546386 -0.07680348 -0.15462199 0.40369937 0.23766452 -0.03866443 -0.029223187 0.065360844
0.22206107 -0.3034794 -0.44044858 -0.23691677 -0.58580077 -0.7714117 -0.12953648 0.37603122
00000000: 9798 9f3d 7654 ac3e 2932 4d3c b2c0 23be
00000010: 78f8 9abc 93bc 20bb 044c e0be 7b29 2f3e
00000020: 0c4a 3b3d 2a43 55bf 35cb e3bf 024a b4bf
00000030: 1a8a b8be 851e 61bf 2b27 2abf 4655 9c3e
00000040: ea59 0f3e 8ff5 163e 7495 c03d 816c 673e
00000050: 664f d73d 3328 d5bc 943b 803d 0a31 623d
00000060: b60b 5c3d 8d77 e43c 4d4a 7dbe 3ab6 dc3c
00000070: 1428 1a3e 6687 a43e 9ab4 593e b4b4 1b3e
00000080: 6fc9 323d 68e5 e0bd c546 cbbe 16d6 c9be
00000090: 85bb 0e3e ec84 2c3e 8d15 863d 16f6 d1bd
000000a0: bd37 61be 54df 06be 9716 143e 395a 9d3d
000000b0: fe77 203d d30e dabd 0901 3dbe 95c3 c4bd
000000c0: 17b8 313e b898 ba3d f557 99be 08ba 68be
000000d0: 9049 973e 9f57 b23e f8af 46be a368 76be
000000e0: 905b e43e 2a85 59bd 486b 09be 90ea 6b3e
000000f0: 0499 6a3d 10e9 bb3d 111e 0dbe e358 013d
00000100: 3fa6 fe3d 15eb 80be 971e 13be 2835 143e
00000110: 367f 993e 1760 0a3e 16ef 8fbe 308b 02bd
00000120: d8f1 8b3c 4f36 ecbe d995 38be 7c42 a73d
00000130: f4e9 a73c 46f3 493e ad67 07be f0e1 f43e
00000140: 3091 783d 15d6 dfbb 9a10 b73e 6d02 debd
00000150: d907 87be a2ff 6f3d 7e05 a3be 3ae8 e6bd
00000160: c3e9 ef3e 5e91 b7bd 24bf 123e 8e21 83bd
00000170: 1091 73be 22d7 13be ba55 9d3e ce3e d6bd
00000180: f69c 15be 2256 1b3e 6fc0 843d 7507 233c
00000190: b100 ce3e d72d 023e 13c7 823e bf15 8bbd
000001a0: ced4 27bf 08bb 8cbc c070 c4be 2b9f a6be
000001b0: 4c59 61be 85c5 c23e b848 3cbe f86c 273e
000001c0: eef8 b4bd 24b5 a5bd a648 333e 6834 92be
000001d0: 22b5 c73d 3fb0 983d fd3c b6bc 87ee abbe
000001e0: da76 843e 8e23 253e a33c a0be 3247 773d
000001f0: c319 583e f639 53bd b82f 5dbe ed96 eebe
00000200: 8ec8 0cbd 966e ad3e 349d d63e 97ba ee3d
00000210: 2d8c d9bd 59bc 6b3d 8c2e 66bd 5727 0f3d
00000220: 0ed1 9fbd 26c9 a7be 130c 1d3d a782 0fbe
00000230: f78c f73d 2d64 9dbc 01b5 113e 94e6 933e
00000240: 7a9f 8abe ec32 4e3e d47c edbd 3712 ec3d
00000250: b49d 8f3e 7685 bbba 62c5 cfbd 9e5a 8abb
00000260: 30ee bebe 7991 52be e3ea 56bc b0bb 0c3e
00000270: 9804 66be ab36 133e e489 283e cc89 d5bc
00000280: 9dd9 d9bd a8af ef3d 83be 02be e7b5 b33e
00000290: 4ee7 a63d 600a b1be 72dd ec3c e85e 463e
000002a0: be92 9cbf ca2c b3be a2dd 9f3c 2887 4d3e
000002b0: 9c1f 5fbe 74b8 3d3d 58da dc3e b9da 72be
000002c0: c274 88be 62ef 443e 6216 5c3c c9e7 fabd
000002d0: f2ac 273e d431 fa3c fcea 1cbe 3a16 363e
000002e0: 630a 723e f7ad c8be 71fc ad3d a8ac 823e
000002f0: 230b abbe 2887 093e 547f c93d 327a 3dbe
00000300: 6157 9a3d cf97 f3bd 8e77 3e3e 56ea 14be
00000310: a4cb a0bd ca7e 493e 2bc1 87be b006 f73b
00000320: 501e ac3e 7da9 413c 1470 77bd 913d b1bc
00000330: e5dd 88be c3b3 6a3d 5f5e cdbe 4886 5ebb
00000340: 15d2 57bd ca41 213e d2f7 9dba 5bfe 233d
00000350: 2fe2 173e 97e3 9dbe 6af5 7d3e eaca b53d
00000360: fe70 613d e3bf ddbd e94a 5d3d dc17 303e
00000370: ef42 c8be 61ef 653e dd4b 153e 5c90 c7be
00000380: c97f 6b3e a7bd 87be 8549 8c3e 1ae2 02bd
00000390: b340 eabd be1c 673e ffe8 0e3d f6ee 35bd
000003a0: 77d2 283e 4be4 5dbe 71a2 403e b5ed 80be
000003b0: af80 473d 95c9 bb3d 2a19 afbe 707d 703e
000003c0: e1ea 873e 254b 9dbd 3a55 1ebe afb1 ce3e
000003d0: 545e 733e 985e 1ebd 7765 efbc e8db 853d
000003e0: fa63 633e a761 9bbe 7a82 e1be 4f9a 72be
000003f0: 0af7 15bf 3d7b 45bf 36a5 04be 2a87 c03e

sequential_3/conv2d_8/Conv2D i1 [64, 3, 3, 32]
-1 -31 15 5 36 -16 2 20
17 -33 -50 -3 -1 -35 39 -6
-6 1 -17 12 -12 -19 -18 3
-55 10 -14 -38 -21 -35 0 19
-19 -22 2 6 23 -67 15 0
-55 -36 -28 -7 7 -16 -3 -49
-6 -14 -23 -3 1 13 -26 12
33 -17 -9 0 -31 0 14 -1
20 -127 11 -17 -18 8 6 22
-68 -5 16 -8 -3 32 -56 -25
17 12 33 8 38 16 23 0
-42 6 -7 -45 -72 28 -37 -11
7 -13 26 51 39 4 -15 27
49 -6 -19 14 21 8 70 11
31 -23 18 21 6 11 0 -6
-48 12 -1 43 15 -16 -2 33
-7 -15 2 12 -1 -26 -2 -7
-50 15 1 -23 0 -8 7 -49
18 -2 3 9 -5 -2 -6 -1
15 -13 19 28 -2 -6 -15 -4
7 -75 1 -35 -33 10 25 54
-15 -18 34 -40 -25 8 -22 15
26 25 17 -77 3 33 43 11
-1 5 -29 -5 -15 30 3 -26
22 -1 17 16 26 29 -40 0
48 0 -6 4 15 8 52 25
-12 -15 10 24 0 -1 2 -27
4 -23 10 51 22 -34 -26 -16
-32 -1 -13 -49 0 -2 -4 -46
-14 11 -26 -8 -41 -8 -20 -47
11 -19 -25 -20 -24 -8 -26 -16
-15 -10 -16 -11 -25 -18 -30 -34
00000000: ffe1 0f05 24f0 0214 11df cefd ffdd 27fa
00000010: fa01 ef0c f4ed ee03 c90a f2da ebdd 0013
00000020: edea 0206 17bd 0f00 c9dc e4f9 07f0 fdcf
00000030: faf2 e9fd 010d e60c 21ef f700 e100 0eff
00000040: 1481 0bef ee08 0616 bcfb 10f8 fd20 c8e7
00000050: 110c 2108 2610 1700 d606 f9d3 b81c dbf5
00000060: 07f3 1a33 2704 f11b 31fa ed0e 1508 460b
00000070: 1fe9 1215 060b 00fa d00c ff2b 0ff0 fe21
00000080: f9f1 020c ffe6 fef9 ce0f 01e9 00f8 07cf
00000090: 12fe 0309 fbfe faff 0ff3 131c fefa f1fc
000000a0: 07b5 01dd df0a 1936 f1ee 22d8 e708 ea0f
000000b0: 1a19 11b3 0321 2b0b ff05 e3fb f11e 03e6
000000c0: 16ff 1110 1a1d d800 3000 fa04 0f08 3419
000000d0: f4f1 0a18 00ff 02e5 04e9 0a33 16de e6f0
000000e0: e0ff f3cf 00fe fcd2 f20b e6f8 d7f8 ecd1
000000f0: 0bed e7ec e8f8 e6f0 f1f6 f0f5 e7ee e2de

sequential_3/dense_6/MatMul i1 [128, 1600] scale=0.007950925 zero_point=0
-0.01590185 -0.07950925 0.20672406 0.0318037 -0.01590185 0.039754625 0.0 0.111312956
-0.087460175 0.09541111 0.055656478 0.023852777 -0.039754625 0.10336203 -0.10336203 0.32598794
-0.23057683 0.087460175 -0.15106758 0.17492035 0.047705553 0.0636074 0.0 -0.047705553
0.023852777 -0.007950925 0.07950925 -0.3418898 -0.111312956 0.19082221 -0.16696943 -0.007950925
0.023852777 -0.007950925 -0.11926388 -0.111312956 0.11926388 -0.23852776 0.1590185 0.007950925
0.20672406 -0.0318037 0.31008607 -0.007950925 -0.039754625 0.0 0.22262591 0.087460175
0.055656478 0.01590185 0.111312956 0.13516574 0.087460175 0.1272148 -0.007950925 0.047705553
0.007950925 0.11926388 -0.07950925 -0.09541111 -0.29418424 -0.22262591 0.3418898 -0.2862333
0.07155833 -0.047705553 -0.047705553 0.1590185 0.36574256 -0.01590185 0.21467498 -0.0636074
0.42139903 -0.13516574 0.047705553 -0.30213517 -0.01590185 -0.111312956 0.27033147 -0.039754625
-0.20672406 -0.11926388 0.1272148 -0.0318037 0.18287128 0.055656478 -0.07950925 -0.09541111
0.32598794 -0.023852777 0.023852777 -0.27828237 0.01590185 -0.0318037 0.047705553 -0.2862333
-0.055656478 0.20672406 -0.318037 0.13516574 -0.007950925 -0.07155833 0.007950925 0.18287128
-0.1272148 0.055656478 -0.055656478 0.23852776 0.039754625 0.07950925 -0.07950925 0.19877313
-0.007950925 -0.09541111 0.19877313 0.32598794 -0.19082221 0.07950925 0.1590185 0.21467498
0.023852777 -0.039754625 -0.1590185 0.023852777 0.07950925 0.07950925 0.039754625 0.007950925
0.07155833 -0.0636074 -0.023852777 -0.23057683 -0.24647868 -0.01590185 0.14311665 -0.007950925
0.1272148 0.11926388 -0.039754625 0.13516574 -0.0318037 0.087460175 0.039754625 -0.23057683
-0.2862333 0.09541111 -0.30213517 -0.09541111 0.18287128 -0.07155833 0.023852777 0.42139903
0.07950925 0.0 0.0318037 -0.13516574 0.01590185 0.007950925 0.14311665 -0.10336203
0.22262591 0.18287128 -0.0636074 0.17492035 0.01590185 -0.007950925 -0.0636074 -0.0318037
0.16696943 0.16696943 0.007950925 0.15106758 -0.01590185 -0.13516574 -0.19082221 0.007950925
0.23852776 -0.01590185 0.26238054 0.07950925 -0.19877313 -0.01590185 0.07950925 0.10336203
0.0318037 -0.3418898 0.14311665 -0.09541111 0.047705553 0.10336203 -0.0636074 0.087460175
-0.007950925 -0.24647868 -0.01590185 -0.18287128 -0.07950925 0.14311665 -0.29418424 -0.10336203
-0.01590185 -0.055656478 -0.3498407 -0.33393887 -0.01590185 -0.023852777 0.10336203 -0.10336203
-0.007950925 0.007950925 0.18287128 0.087460175 0.023852777 0.007950925 0.007950925 0.09541111
-0.01590185 -0.0636074 0.0 -0.007950925 -0.07950925 0.0318037 0.007950925 0.10336203
0.19877313 0.3498407 -0.07950925 0.23057683 0.18287128 0.15106758 0.0636074 0.0318037
0.111312956 0.055656478 0.3498407 0.318037 0.09541111 0.023852777 -0.007950925 -0.18287128
0.29418424 0.24647868 -0.07155833 0.023852777 0.16696943 0.09541111 -0.10336203 0.16696943
-0.01590185 0.17492035 0.0636074 -0.047705553 0.16696943 -0.0636074 0.0636074 -0.07155833
00000000: fef6 1a04 fe05 000e f50c 0703 fb0d f329
00000010: e30b ed16 0608 00fa 03ff 0ad5 f218 ebff
00000020: 03ff f1f2 0fe2 1401 1afc 27ff fb00 1c0b
00000030: 0702 0e11 0b10 ff06 010f f6f4 dbe4 2bdc
00000040: 09fa fa14 2efe 1bf8 35ef 06da fef2 22fb
00000050: e6f1 10fc 1707 f6f4 29fd 03dd 02fc 06dc
00000060: f91a d811 fff7 0117 f007 f91e 050a f619
00000070: fff4 1929 e80a 141b 03fb ec03 0a0a 0501
00000080: 09f8 fde3 e1fe 12ff 100f fb11 fc0b 05e3
00000090: dc0c daf4 17f7 0335 0a00 04ef 0201 12f3
000000a0: 1c17 f816 02ff f8fc 1515 0113 feef e801
000000b0: 1efe 210a e7fe 0a0d 04d5 12f4 060d f80b
000000c0: ffe1 fee9 f612 dbf3 fef9 d4d6 fefd 0df3
000000d0: ff01 170b 0301 010c fef8 00ff f604 010d
000000e0: 192c f61d 1713 0804 0e07 2c28 0c03 ffe9
000000f0: 251f f703 150c f315 fe16 08fa 15f8 08f7

sequential_3/dense_7/MatMul i1 [10, 128] scale=0.008550675 zero_point=0
0.14536147 0.12826012 -0.19666551 0.29072294 -0.0342027 -0.22231755 0.059854724 -0.26507092
-0.1368108 -0.17956416 0.49593914 0.008550675 0.15391214 -0.0684054 0.0684054 -0.367679
-0.1368108 -0.18811484 0.11115877 0.008550675 -0.26507092 0.12826012 -0.1026081 0.16246282
-0.5557939 -0.1026081 -0.32492563 0.0342027 -0.12826012 0.0 0.0342027 -0.3334763
0.085506745 -0.30782428 -0.6070979 -0.01710135 0.12826012 0.16246282 0.1368108 -0.17956416
-0.01710135 0.26507092 0.12826012 0.25652024 -0.53014183 -0.31637496 0.5728952 -0.2052162
0.085506745 -0.042753372 0.19666551 0.26507092 -0.14536147 0.01710135 -0.17101349 -0.042753372
0.0 -0.09405742 -0.18811484 0.0 -0.01710135 0.025652025 -0.14536147 -0.16246282
-0.0684054 0.0 -0.32492563 -0.37622967 0.19666551 0.17956416 0.008550675 -0.35057765
-0.0684054 0.05130405 0.085506745 -0.1026081 -0.14536147 0.35912833 -0.11115877 -0.39333102
0.19666551 -0.008550675 -0.059854724 0.12826012 0.15391214 0.008550675 -0.05130405 -0.21376687
-0.31637496 -0.11970945 -0.5643445 0.42753375 -0.37622967 0.23086822 -0.5130405 0.025652025
0.17101349 -0.2394189 -0.61564857 -0.32492563 0.17956416 -0.2052162 -0.12826012 0.1368108
0.22231755 -0.4788378 -0.34202698 0.16246282 0.21376687 0.24796957 0.025652025 -0.025652025
0.059854724 0.2992736 0.11970945 0.14536147 -0.11970945 -0.6669526 0.05130405 0.025652025
0.42753375 -0.1368108 0.0684054 -0.01710135 -0.11970945 0.025652025 0.15391214 0.17956416
-0.41898307 -0.12826012 -0.15391214 -0.11970945 0.17956416 -0.059854724 0.085506745 -0.07695607
0.17956416 -0.17956416 -0.16246282 -0.34202698 0.15391214 -0.085506745 -0.042753372 0.19666551
-0.1026081 0.19666551 -0.9234729 -0.21376687 -0.22231755 -0.18811484 -0.1026081 -0.24796957
-0.735358 0.17101349 -0.2736216 0.008550675 -0.025652025 0.14536147 -0.025652025 0.0
-0.059854724 -0.1026081 -0.22231755 -0.059854724 -0.01710135 0.09405742 0.01710135 0.01710135
-0.12826012 -0.5899966 -0.17101349 -0.38478035 0.41898307 -0.5643445 -0.12826012 0.09405742
-0.059854724 -0.61564857 -0.5044898 0.4104324 -0.042753372 0.11115877 0.46173644 0.15391214
-0.5044898 -0.17101349 0.025652025 0.30782428 -0.8123141 -0.059854724 -0.05130405 -0.008550675
-0.01710135 0.0 0.38478035 0.11115877 0.2736216 -0.43608442 0.11115877 -0.22231755
0.24796957 0.11970945 0.0342027 -0.0684054 -0.042753372 -0.6413006 0.085506745 0.46173644
-0.25652024 -0.008550675 0.025652025 0.12826012 -0.15391214 0.008550675 -0.5643445 0.39333102
0.15391214 -0.53014183 -0.9405742 0.24796957 0.0 0.01710135 0.0 0.17101349
-0.30782428 -0.367679 -0.32492563 0.30782428 0.16246282 0.12826012 -0.05130405 0.07695607
-0.38478035 -0.39333102 0.2992736 -0.30782428 -0.09405742 0.085506745 0.31637496 0.6413006
-0.0342027 -0.4788378 0.1026081 -0.21376687 -0.11970945 -0.39333102 0.35912833 0.17956416
-0.28217226 0.1026081 0.25652024 -0.8037634 0.15391214 0.025652025 -0.34202698 -0.35057765
00000000: 110f e922 fce6 07e1 f0eb 3a01 12f8 08d5
00000010: f0ea 0d01 e10f f413 bff4 da04 f100 04d9
00000020: 0adc b9fe 0f13 10eb fe1f 0f1e c2db 43e8
00000030: 0afb 171f ef02 ecfb 00f5 ea00 fe03 efed
00000040: f800 dad4 1715 01d7 f806 0af4 ef2a f3d2
00000050: 17ff f90f 1201 fae7 dbf2 be32 d41b c403
00000060: 14e4 b8da 15e8 f110 1ac8 d813 191d 03fd
00000070: 0723 0e11 f2b2 0603 32f0 08fe f203 1215
00000080: cff1 eef2 15f9 0af7 15eb edd8 12f6 fb17
00000090: f417 94e7 e6ea f4e3 aa14 e001 fd11 fd00
000000a0: f9f4 e6f9 fe0b 0202 f1bb ecd3 31be f10b
000000b0: f9b8 c530 fb0d 3612 c5ec 0324 a1f9 faff
000000c0: fe00 2d0d 20cd 0de6 1d0e 04f8 fbb5 0a36
000000d0: e2ff 030f ee01 be2e 12c2 921d 0002 0014
000000e0: dcd5 da24 130f fa09 d3d2 23dc f50a 254b
000000f0: fcc8 0ce7 f2d2 2a15 df0c 1ea2 1203 d8d7
